…
|       from large pool |       0    |       0    |       0    |       0    |
|       from small pool |       0    |       0    |       0    |       0    |
|===========================================================================|

{'baseline': None,
 'bs': 2048,
 'debug_load': False,
 'epochs': 400,
 'gpu': '0',
 'load_model': 1,
 'lr': 0.001,
 'method': 'lin2',
 'res_dir': '../experiments/jets_results',
 'save': True}

Model: SetToGraph(
  (set_model): DeepSet(
    (sequential): Sequential(
      (0): DeepSetLayer(
        (attention): Attention(
          (query): Sequential(
            (0): Linear(in_features=10, out_features=1, bias=True)
            (1): Tanh()
          )
          (key): Linear(in_features=10, out_features=1, bias=True)
        )
        (layer1): Conv1d(10, 256, kernel_size=(1,), stride=(1,))
        (layer2): Conv1d(10, 256, kernel_size=(1,), stride=(1,))
      )
      (1): ReLU()
      (2): DeepSetLayer(
        (attention): Attention(
          (query): Sequential(
            (0): Linear(in_features=256, out_features=25, bias=True)
            (1): Tanh()
          )
          (key): Linear(in_features=256, out_features=25, bias=True)
        )
        (layer1): Conv1d(256, 256, kernel_size=(1,), stride=(1,))
        (layer2): Conv1d(256, 256, kernel_size=(1,), stride=(1,))
      )
      (3): ReLU()
      (4): DeepSetLayer(
        (attention): Attention(
          (query): Sequential(
            (0): Linear(in_features=256, out_features=25, bias=True)
            (1): Tanh()
          )
          (key): Linear(in_features=256, out_features=25, bias=True)
        )
        (layer1): Conv1d(256, 256, kernel_size=(1,), stride=(1,))
        (layer2): Conv1d(256, 256, kernel_size=(1,), stride=(1,))
      )
      (5): ReLU()
      (6): DeepSetLayer(
        (attention): Attention(
          (query): Sequential(
            (0): Linear(in_features=256, out_features=25, bias=True)
            (1): Tanh()
          )
          (key): Linear(in_features=256, out_features=25, bias=True)
        )
        (layer1): Conv1d(256, 256, kernel_size=(1,), stride=(1,))
        (layer2): Conv1d(256, 256, kernel_size=(1,), stride=(1,))
      )
      (7): ReLU()
      (8): DeepSetLayer(
        (attention): Attention(
          (query): Sequential(
            (0): Linear(in_features=256, out_features=25, bias=True)
            (1): Tanh()
          )
          (key): Linear(in_features=256, out_features=25, bias=True)
        )
        (layer1): Conv1d(256, 5, kernel_size=(1,), stride=(1,))
        (layer2): Conv1d(256, 5, kernel_size=(1,), stride=(1,))
      )
    )
  )
  (suffix): PsiSuffix(
    (model): Sequential(
      (0): DiagOffdiagMLP(
        (conv_offdiag): Conv2d(10, 256, kernel_size=(1, 1), stride=(1, 1))
      )
      (1): ReLU()
      (2): DiagOffdiagMLP(
        (conv_offdiag): Conv2d(256, 1, kernel_size=(1, 1), stride=(1, 1))
      )
    )
  )
)
The nubmer of model parameters is 457449
Loading model state dict in ../experiments/jets_results/jets_20211028_235049_0/exp_model.pt
|===========================================================================|
|                  PyTorch CUDA memory summary, device ID 0                 |
|---------------------------------------------------------------------------|
…
